…
_start_day=57.125, train_end_day=81.875, train_start_day=57.0, weight_decay=0.0)
Tue 14 Oct 2025 20:32:18 INFO ===============lr_0.0001 -bw_weight_0 -ga_weight_0================
Tue 14 Oct 2025 20:32:18 INFO Loading data from cache path: ./data/pretrain_bdl_stream_all_pay.pkl
Tue 14 Oct 2025 20:32:18 INFO cache_path ./data/pretrain_bdl_stream_all_pay.pkl exists.
Tue 14 Oct 2025 20:32:18 INFO loading cached data...
Tue 14 Oct 2025 20:32:23 INFO pretrained_model: baselinemlp_pretrain_2025_all_pay.pth
Tue 14 Oct 2025 20:32:23 INFO Pretrained Model:
 BaselineMLP(
  (embeddings): ModuleList(
    (0): Embedding(5, 16)
    (1): Embedding(3604778, 16)
    (2): Embedding(1951876, 16)
    (3): Embedding(432750, 16)
    (4): Embedding(14, 16)
    (5): Embedding(19, 16)
    (6): Embedding(2638598, 16)
    (7): Embedding(1962400, 16)
    (8): Embedding(11123, 16)
    (9): Embedding(397159, 16)
    (10): Embedding(578622, 16)
    (11): Embedding(3, 16)
    (12): Embedding(622, 16)
    (13): Embedding(107, 16)
    (14): Embedding(8009, 16)
    (15): Embedding(30685, 16)
    (16): Embedding(104, 16)
    (17): Embedding(10, 16)
    (18): Embedding(3, 16)
    (19): Embedding(2, 16)
    (20): Embedding(9, 16)
    (21): Embedding(7, 16)
  )
  (fc1): Linear(in_features=352, out_features=1024, bias=True)
  (dice1): Dice(
    (bn): LayerNorm((1024,), eps=0.0001, elementwise_affine=False)
  )
  (fc2): Linear(in_features=1024, out_features=512, bias=True)
  (dice2): Dice(
    (bn): LayerNorm((512,), eps=0.0001, elementwise_affine=False)
  )
  (fc3): Linear(in_features=512, out_features=256, bias=True)
  (dice3): Dice(
    (bn): LayerNorm((256,), eps=0.0001, elementwise_affine=False)
  )
  (fc4): Linear(in_features=256, out_features=128, bias=True)
  (dice4): Dice(
    (bn): LayerNorm((128,), eps=0.0001, elementwise_affine=False)
  )
  (fc5): Linear(in_features=128, out_features=64, bias=True)
  (dice5): Dice(
    (bn): LayerNorm((64,), eps=0.0001, elementwise_affine=False)
  )
  (fc_gmv): Linear(in_features=64, out_features=1, bias=True)
)
Tue 14 Oct 2025 20:32:24 INFO data_size: 1776
Tue 14 Oct 2025 20:32:24 INFO multi_pay_size: 935
Tue 14 Oct 2025 20:32:24 INFO Testing Day 1...
Tue 14 Oct 2025 20:32:24 INFO Day 1 - Test AUC: 0.8035, Test ACC: 0.2416, Test ALPR: 0.8383
Pretrain Test AUC: 0.8035, Pretrain Test ACC: 0.2416, Pretrain ALPR:0.8383

Tue 14 Oct 2025 20:32:24 INFO data_size: 8970
…
